Results/sig/Model.model (npz, 1801 bytes, 6 tensors)

l1/W f4 [10, 4]
0.55732256 0.6087557 -0.8616274 -1.439446 -0.5092663 -0.50649035 1.0563934 0.81321573
-0.66831505 -0.6854854 0.9946097 1.6657394 -0.33148187 -0.7797912 0.5764694 1.8253059
-0.4570906 -0.9889637 1.345853 0.8066851 -0.23044118 -1.1748266 1.6725907 2.508708
0.5387238 0.88168496 -1.1436679 -1.2407078 0.46541557 0.5642117 -0.6741397 -1.8735036
-0.2914004 -0.6539152 0.3333113 2.22303 -0.07968712 -1.7924728 2.1742215 2.4770107
00000000: b1ac 0e3f 6ad7 1b3f 9d93 5cbf c43f b8bf
00000010: 475f 02bf 5aa9 01bf e637 873f e82e 503f
00000020: b216 2bbf f97b 2fbf be9e 7e3f f336 d53f
00000030: feb7 a9be 65a0 47bf 8093 133f a0a3 e93f
00000040: c707 eabe ba2c 7dbf e944 ac3f ea82 4e3f
00000050: c6f8 6bbe b860 96bf 7417 d63f ac8e 2040
00000060: cee9 093f 1bb6 613f b663 92bf 83cf 9ebf
00000070: f34a ee3e 2e70 103f 6b94 2cbf f7ce efbf
00000080: 6f32 95be fd66 27bf c7a7 aa3e 2046 0e40
00000090: 0033 a3bd c06f e5bf 7226 0b40 5887 1e40

l2/W f4 [10, 10]
1.6668166 -1.0208695 -1.059559 -2.2226355 -2.4800994 -1.5221605 1.3653775 1.3787278
-1.1091446 -1.8065832 2.470179 -1.6481338 -1.8447906 -1.721187 -0.80845237 -0.2640202
2.3948522 3.27599 -0.78731304 0.6931397 2.1391058 -1.3976439 -1.680137 -1.873458
-2.8013284 -1.2085322 0.95881 1.1340927 -1.2402375 -1.990634 2.4388158 -1.1946794
-1.7251527 -1.2376087 -0.3756368 -0.09845119 2.8788433 3.0759518 -1.0398037 -0.093753554
2.1964266 -1.3919957 -1.6093606 -0.8547986 -0.921704 0.13652721 2.8439379 3.3661785
-0.9854102 0.18440881 2.2557876 -0.56318575 -1.9636613 -1.3176563 -0.6666023 0.12686698
2.6706784 2.9062383 -0.9561497 -0.043577068 -1.4202334 1.3998109 1.0243839 1.6338906
1.8241141 0.86547816 -1.7675458 -1.2317071 1.0772939 1.1832632 -1.6983851 1.1759915
1.2821184 1.1165522 0.42054087 -0.50086355 -1.6245449 -2.179897 1.1152691 0.04450862
1.6303985 -1.421956 -1.4763552 -1.8734637 -2.370993 -1.7022762 1.5714943 1.253847
-0.8183716 -1.6635097 1.9715397 -1.5392679 -1.3994442 -1.6168224 -2.610793 -0.85783964
1.9977474 0.16978575 -1.5910455 -2.3336751
00000000: 3f5a d53f daab 82bf a19f 87bf a93f 0ec0
00000010: f3b9 1ec0 28d6 c2bf b1c4 ae3f 277a b03f
00000020: 73f8 8dbf 1e3e e7bf 6a17 1e40 0cf6 d2bf
00000030: 1922 ecbf db4f dcbf bcf6 4ebf a82d 87be
00000040: 4245 1940 d2a9 5140 598d 49bf 9a71 313f
00000050: 1ce7 0840 ffe5 b2bf bb0e d7bf 79cd efbf
00000060: f748 33c0 2fb1 9abf 9274 753f f329 913f
00000070: 1ac0 9ebf 18cd febf 8f15 1c40 41eb 98bf
00000080: ced1 dcbf f669 9ebf 7753 c0be c7a0 c9bd
00000090: f83e 3840 65dc 4440 4a18 85bf dd01 c0bd
000000a0: 4192 0c40 ea2c b2bf 87ff cdbf 15d4 5abf
000000b0: cbf4 6bbf cacd 0b3e 1403 3640 786f 5740
000000c0: d843 7cbf aad5 3c3e d35e 1040 f12c 10bf
000000d0: 4159 fbbf f6a8 a8bf 73a6 2abf 6be9 013e
000000e0: 65ec 2a40 cfff 3940 3ac6 74bf de7d 32bd
000000f0: 35ca b5bf 012d b33f 031f 833f 5423 d13f
00000100: 927c e93f fa8f 5d3f f13e e2bf 94a8 9dbf
00000110: c4e4 893f 2b75 973f af64 d9bf e486 963f
00000120: 751c a43f 2feb 8e3f 2251 d73e 9838 00bf
00000130: 16f1 cfbf 6f83 0bc0 23c1 8e3f ac4e 363d
00000140: e6b0 d03f a702 b6bf 35f9 bcbf a9cd efbf
00000150: 59be 17c0 30e4 d9bf ba26 c93f 0f7e a03f
00000160: cd80 51bf e3ed d4bf 6a5b fc3f bb06 c5bf
00000170: fd20 b3bf 09f4 cebf 3c17 27c0 619b 5bbf
00000180: 30b6 ff3f 51dc 2d3e 61a7 cbbf ef5a 15c0

l3/W f4 [3, 10]
2.1684887 0.108419 2.7865386 -0.26021037 -0.52722466 0.22563396 -2.6895034 -2.928079
2.3694253 2.2051072 -0.22989148 -3.2264113 -0.7579745 -2.0323865 -1.8626297 -2.179244
1.7872204 2.5564275 -0.7740339 -0.5684928 -1.4610015 1.8262709 -2.8227303 1.5665071
1.8361591 1.7653646 -0.4277369 -1.297143 -1.8842981 -2.2340333
00000000: 85c8 0a40 c80a de3d a656 3240 4b3a 85be
00000010: 32f8 06bf 970c 673e d320 2cc0 a565 3bc0
00000020: aaa4 1740 7a20 0d40 ac68 6bbe 867d 4ec0
00000030: 9e0a 42bf 9f12 02c0 a66a eebf bc78 0bc0
00000040: a3c3 e43f 829c 2340 1627 46bf bf88 11bf
00000050: 1902 bbbf 3fc3 e93f 9da7 34c0 4e83 c83f
00000060: 4307 eb3f 78f7 e13f 5500 dbbe c808 a6bf
00000070: ae30 f1bf 67fa 0ec0

l2/b f4 [10]
-0.71960473 0.33729216 -0.4551073 -0.018114006 -0.30400035 -0.10991817 0.20962192 0.10643998
-0.72444975 -0.45076704
00000000: 0438 38bf 8fb1 ac3e d303 e9be d363 94bc
00000010: efa5 9bbe c71c e1bd 21a7 563e 34fd d93d
00000020: 8a75 39bf f0ca e6be

l3/b f4 [3]
-1.1996429 1.3942759 -0.8785778
00000000: e68d 99bf a277 b23f 7aea 60bf

l1/b f4 [10]
0.93715006 -1.5481753 -1.1419647 -1.0084254 -1.0408762 -0.66129655 1.3050286 1.5475653
-1.2706735 -0.98193884
00000000: 11e9 6f3f 9c2a c6bf e62b 92bf 1514 81bf
00000010: 6e3b 85bf bb4a 29bf 2d0b a73f 9f16 c63f
00000020: 6ea5 a2bf 5860 7bbf
